…
fer=False, task=detect, time=None, tracker=botsort.yaml, translate=0.1, val=True, verbose=True, vid_stride=1, visualize=False, warmup_bias_lr=0.1, warmup_epochs=3.0, warmup_momentum=0.8, weight_decay=0.0005, workers=8, workspace=None\n","\u001b[KDownloading https://ultralytics.com/assets/Arial.ttf to '/root/.config/Ultralytics/Arial.ttf': 100% ━━━━━━━━━━━━ 755.1KB 91.5MB/s 0.0s\n","Overriding model.yaml nc=80 with nc=1\n","\n","                   from  n    params  module                                       arguments                     \n","  0                  -1  1       464  ultralytics.nn.modules.conv.Conv             [3, 16, 3, 2]                 \n","  1                  -1  1      4672  ultralytics.nn.modules.conv.Conv             [16, 32, 3, 2]                \n","  2                  -1  1      6640  ultralytics.nn.modules.block.C3k2            [32, 64, 1, False, 0.25]      \n","  3                  -1  1     36992  ultralytics.nn.modules.conv.Conv             [64, 64, 3, 2]                \n","  4                  -1  1     26080  ultralytics.nn.modules.block.C3k2            [64, 128, 1, False, 0.25]     \n","  5                  -1  1    147712  ultralytics.nn.modules.conv.Conv             [128, 128, 3, 2]              \n","  6                  -1  1     87040  ultralytics.nn.modules.block.C3k2            [128, 128, 1, True]           \n","  7                  -1  1    295424  ultralytics.nn.modules.conv.Conv             [128, 256, 3, 2]              \n","  8                  -1  1    346112  ultralytics.nn.modules.block.C3k2            [256, 256, 1, True]           \n","  9                  -1  1    164608  ultralytics.nn.modules.block.SPPF            [256, 256, 5]                 \n"," 10                  -1  1    249728  ultralytics.nn.modules.block.C2PSA           [256, 256, 1]                 \n"," 11                  -1  1         0  torch.nn.modules.upsampling.Upsample         [None, 2, 'nearest']          \n"," 12             [-1, 6]  1         0  ultralytics.nn.modules.conv.Concat           [1]                           \n"," 13                  -1  1    111296  ultralytics.nn.modules.block.C3k2            [384, 128, 1, False]          \n"," 14                  -1  1         0  torch.nn.modules.upsampling.Upsample         [None, 2, 'nearest']          \n"," 15             [-1, 4]  1         0  ultralytics.nn.modules.conv.Concat           [1]                           \n"," 16                  -1  1     32096  ultralytics.nn.modules.block.C3k2            [256, 64, 1, False]           \n"," 17                  -1  1     36992  ultralytics.nn.modules.conv.Conv             [64, 64, 3, 2]                \n"," 18            [-1, 13]  1         0  ultralytics.nn.modules.conv.Concat           [1]                           \n"," 19                  -1  1     86720  ultralytics.nn.modules.block.C3k2            [192, 128, 1, False]          \n"," 20                  -1  1    147712  ultralytics.nn.modules.conv.Conv             [128, 128, 3, 2]              \n"," 21            [-1, 10]  1         0  ultralytics.nn.modules.conv.Concat           [1]                           \n"," 22                  -1  1    378880  ultralytics.nn.modules.block.C3k2            [384, 256, 1, True]           \n"," 23        [16, 19, 22]  1    430867  ultralytics.nn.modules.head.Detect           [1, 16, None, [64, 128, 256]] \n","YOLO11n summary: 182 layers, 2,590,035 parameters, 2,590,019 gradients, 6.4 GFLOPs\n","\n","Transferred 448/499 items from pretrained weights\n","Freezing layer 'model.23.dfl.conv.weight'\n","\u001b[34m\u001b[1mAMP: \u001b[0mrunning Automatic Mixed Precision (AMP) checks...\n","\u001b[KDownloading https://github.com/ultralytics/assets/releases/download/v8.4.0/yolo
…
